…
/home/Galoaa.b/.conda/envs/torch_env/lib/python3.8/site-packages/torchvision/models/_utils.py:223: UserWarning: Arguments other than a weight enum or `None` for 'weights' are deprecated since 0.13 and may be removed in the future. The current behavior is equivalent to passing `weights=DenseNet121_Weights.IMAGENET1K_V1`. You can also use `weights=DenseNet121_Weights.DEFAULT` to get the most up-to-date weights.
  warnings.warn(msg)
Loaded training pickle files
Loaded validation pickle files
Train Samples List: 926
Valid Samples List: 143
DataParallel(
  (module): completeNet(
    (cnn): EncoderCNN(
      (cnn): Sequential(
        (0): Sequential(
          (conv0): Conv2d(3, 64, kernel_size=(7, 7), stride=(2, 2), padding=(3, 3), bias=False)
          (norm0): BatchNorm2d(64, eps=1e-05, momentum=0.1, affine=True, track_running_stats=True)
          (relu0): ReLU(inplace=True)
          (pool0): MaxPool2d(kernel_size=3, stride=2, padding=1, dilation=1, ceil_mode=False)
          (denseblock1): _DenseBlock(
            (denselayer1): _DenseLayer(
              (norm1): BatchNorm2d(64, eps=1e-05, momentum=0.1, affine=True, track_running_stats=True)
              (relu1): ReLU(inplace=True)
              (conv1): Conv2d(64, 128, kernel_size=(1, 1), stride=(1, 1), bias=False)
              (norm2): BatchNorm2d(128, eps=1e-05, momentum=0.1, affine=True, track_running_stats=True)
              (relu2): ReLU(inplace=True)
              (conv2): Conv2d(128, 32, kernel_size=(3, 3), stride=(1, 1), padding=(1, 1), bias=False)
            )
            (denselayer2): _DenseLayer(
              (norm1): BatchNorm2d(96, eps=1e-05, momentum=0.1, affine=True, track_running_stats=True)
              (relu1): ReLU(inplace=True)
              (conv1): Conv2d(96, 128, kernel_size=(1, 1), stride=(1, 1), bias=False)
              (norm2): BatchNorm2d(128, eps=1e-05, momentum=0.1, affine=True, track_running_stats=True)
              (relu2): ReLU(inplace=True)
              (conv2): Conv2d(128, 32, kernel_size=(3, 3), stride=(1, 1), padding=(1, 1), bias=False)
            )
            (denselayer3): _DenseLayer(
              (norm1): BatchNorm2d(128, eps=1e-05, momentum=0.1, affine=True, track_running_stats=True)
              (relu1): ReLU(inplace=True)
              (conv1): Conv2d(128, 128, kernel_size=(1, 1), stride=(1, 1), bias=False)
              (norm2): BatchNorm2d(128, eps=1e-05, momentum=0.1, affine=True, track_running_stats=True)
              (relu2): ReLU(inplace=True)
              (conv2): Conv2d(128, 32, kernel_size=(3, 3), stride=(1, 1), padding=(1, 1), bias=False)
            )
            (denselayer4): _DenseLayer(
              (norm1): BatchNorm2d(160, eps=1e-05, momentum=0.1, affine=True, track_running_stats=True)
              (relu1): ReLU(inplace=True)
              (conv1): Conv2d(160, 128, kernel_size=(1, 1), stride=(1, 1), bias=False)
              (norm2): BatchNorm2d(128, eps=1e-05, momentum=0.1, affine=True, track_running_stats=True)
              (relu2): ReLU(inplace=True)
              (conv2): Conv2d(128, 32, kernel_size=(3, 3), stride=(1, 1), padding=(1, 1), bias=False)
            )
            (denselayer5): _DenseLayer(
              (norm1): BatchNorm2d(192, eps=1e-05, momentum=0.1, affine=True, track_running_stats=True)
              (relu1): ReLU(inplace=True)
              (conv1): Conv2d(192, 128, kernel_size=(1, 1), stride=(1, 1), bias=False)
              (norm2): BatchNorm2d(128, eps=1e-05, momentum=0.1, affine=True, track_running_stats=True)
              (relu2): ReLU(inplace=True)
              (conv2): Conv2d(128, 32, kernel_size=(3, 3), stride=(1, 1), padding=(1, 1), bias=False)
            )
            (denselayer6): _DenseLayer(
              (norm1): BatchNorm2d(224, eps=1e-05, momentum=0.1, affine=True, track_running_stats=True)
              (relu1): ReLU(inplace=True)
              (conv1): Conv2d(224, 128, kernel_size=(1, 1), stride=(1, 1), bias=False)
              (norm2): BatchNorm2d(128, eps=1e-05, momentum=0.1, affine=True, track_running_stats=True)
              (relu2): ReLU(inplace=True)
              (conv2): Conv2d(128, 32, kernel_size=(3, 3), stride=(1, 1), padding=(1, 1), bias=False)
            )
          )
          (transition1): _Transition(
            (norm): BatchNorm2d(256, eps=1e-05, momentum=0.1, affine=True, track_running_stats=True)
            (relu): ReLU(inplace=True)
            (conv): Conv2d(256, 128, kernel_size=(1, 1), stride=(1, 1), bias=False)
            (pool): AvgPool2d(kernel_size=2, stride=2, padding=0)
          )
          (denseblock2): _DenseBlock(
            (denselayer1): _DenseLayer(
              (norm1): BatchNorm2d(128, eps=1e-05, momentum=0.1, affine=True, track_running_stats=True)
              (relu1): ReLU(inplace=True)
              (conv1): Conv2d(128, 128, kernel_size=(1, 1), stride=(1, 1), bias=False)
              (norm2): BatchNorm2d(128, eps=1e-05, momentum=0.1, affine=True, track_running_stats=True)
              (relu2): ReLU(inplace=True)
              (conv2): Conv2d(128, 32, kernel_size=(3, 3), stride=(1, 1), padding=(1, 1), bias=False)
            )
            (denselayer2): _DenseLayer(
              (norm1): BatchNorm2d(160, eps=1e-05, momentum=0.1, affine=True, track_running_stats=True)
              (relu1): ReLU(inplace=True)
              (conv1): Conv2d(160, 128, kernel_size=(1, 1), stride=(1, 1), bias=False)
              (norm2): BatchNorm2d(128, eps=1e-05, momentum=0.1, affine=True, track_running_stats=True)
              (relu2): ReLU(inplace=True)
              (conv2): Conv2d(128, 32, kernel_size=(3, 3), stride=(1, 1), padding=(1, 1), bias=False)
            )
            (denselayer3): _DenseLayer(
              (norm1): BatchNorm2d(192, eps=1e-05, momentum=0.1, affine=True, track_running_stats=True)
              (relu1): ReLU(inplace=True)
              (conv1): Conv2d(192, 128, kernel_size=(1, 1), stride=(1, 1), bias=False)
              (norm2): BatchNorm2d(128, eps=1e-05, momentum=0.1, affine=True, track_running_stats=True)
              (relu2): ReLU(inplace=True)
              (conv2): Conv2d(128, 32, kernel_size=(3, 3), stride=(1, 1), padding=(1, 1), bias=False)
            )
            (denselayer4): _DenseLayer(
              (norm1): BatchNorm2d(224, eps=1e-05, momentum=0.1, affine=True, track_running_stats=True)
              (relu1): ReLU(inplace=True)
              (conv1): Conv2d(224, 128, kernel_size=(1, 1), stride=(1, 1), bias=False)
              (norm2): BatchNorm2d(128, eps=1e-05, momentum=0.1, affine=True, track_running_stats=True)
              (relu2): ReLU(inplace=True)
              (conv2): Conv2d(128, 32, kernel_size=(3, 3), stride=(1, 1), padding=(1, 1), bias=False)
            )
            (denselayer5): _DenseLayer(
              (norm1): BatchNorm2d(256, eps=1e-05, momentum=0.1, affine=True, track_running_stats=True)
              (relu1): ReLU(inplace=True)
              (conv1): Conv2d(256, 128, kernel_size=(1, 1), stride=(1, 1), bias=False)
              (norm2): BatchNorm2d(128, eps=1e-05, momentum=0.1, affine=True, track_running_stats=True)
              (relu2): ReLU(inplace=True)
              (conv2): Conv2d(128, 32, kernel_size=(3, 3), stride=(1, 1), padding=(1, 1), bias=False)
            )
            (denselayer6): _DenseLayer(
              (norm1): BatchNorm2d(288, eps=1e-05, momentum=0.1, affine=True, track_running_stats=True)
              (relu1): ReLU(inplace=True)
              (conv1): Conv2d(288, 128, kernel_size=(1, 1), stride=(1, 1), bias=False)
              (norm2): BatchNorm2d(128, eps=1e-05, momentum=0.1, affine=True, track_running_stats=True)
              (relu2): ReLU(inplace=True)
              (conv2): Conv2d(128, 32, kernel_size=(3, 3), stride=(1, 1), padding=(1, 1), bias=False)
            )
            (denselayer7): _DenseLayer(
              (norm1): BatchNorm2d(320, eps=1e-05, momentum=0.1, affine=True, track_running_stats=True)
              (relu1): ReLU(inplace=True)
              (conv1): Conv2d(320, 128, kernel_size=(1, 1), stride=(1, 1), bias=False)
              (norm2): BatchNorm2d(128, eps=1e-05, momentum=0.1, affine=True, track_running_stats=True)
              (relu2): ReLU(inplace=True)
              (conv2): Conv2d(128, 32, kernel_size=(3, 3), stride=(1, 1), padding=(1, 1), bias=False)
            )
            (denselayer8): _DenseLayer(
              (norm1): BatchNorm2d(352, eps=1e-05, momentum=0.1, affine=True, track_running_stats=True)
              (relu1): ReLU(inplace=True)
              (conv1): Conv2d(352, 128, kernel_size=(1, 1), stride=(1, 1), bias=False)
              (norm2): BatchNorm2d(128, eps=1e-05, momentum=0.1, affine=True, track_running_stats=True)
              (relu2): ReLU(inplace=True)
              (conv2): Conv2d(128, 32, kernel_size=(3, 3), stride=(1, 1), padding=(1, 1), bias=False)
            )
            (denselayer9): _DenseLayer(
              (norm1): BatchNorm2d(384, eps=1e-05, momentum=0.1, affine=True, track_running_stats=True)
              (relu1): ReLU(inplace=True)
              (conv1): Conv2d(384, 128, kernel_size=(1, 1), stride=(1, 1), bias=False)
              (norm2): BatchNorm2d(128, eps=1e-05, momentum=0.1, affine=True, track_running_stats=True)
              (relu2): ReLU(inplace=True)
              (conv2): Conv2d(128, 32, kernel_size=(3, 3), stride=(1, 1), padding=(1, 1), bias=False)
            )
            (denselayer10): _DenseLayer(
              (norm1): BatchNorm2d(416, eps=1e-05, momentum=0.1, affine=True, track_running_stats=True)
              (relu1): ReLU(inplace=True)
              (conv1): Conv2d(416, 128, kernel_size=(1, 1), stride=(1, 1), bias=False)
              (norm2): BatchNorm2d(128, eps=1e-05, momentum=0.1, affine=True, track_running_stats=True)
              (relu2): ReLU(inplace=True)
              (conv2): Conv2d(128, 32, kernel_size=(3, 3), stride=(1, 1), padding=(1, 1), bias=False)
            )
            (denselayer11): _DenseLayer(
              (norm1): BatchNorm2d(448, eps=1e-05, momentum=0.1, affine=True, track_running_stats=True)
              (relu1): ReLU(inplace=True)
              (conv1): Conv2d(448, 128, kernel_size=(1, 1), stride=(1, 1), bias=False)
              (norm2): BatchNorm2d(128, eps=1e-05, momentum=0.1, affine=True, track_running_stats=True)
              (relu2): ReLU(inplace=True)
              (conv2): Conv2d(128, 32, kernel_size=(3, 3), stride=(1, 1), padding=(1, 1), bias=False)
            )
            (denselayer12): _DenseLayer(
              (norm1): BatchNorm2d(480, eps=1e-05, momentum=0.1, affine=True, track_running_stats=True)
              (relu1): ReLU(inplace=True)
              (conv1): Conv2d(480, 128, kernel_size=(1, 1), stride=(1, 1), bias=False)
              (norm2): BatchNorm2d(128, eps=1e-05, momentum=0.1, affine=True, track_running_stats=True)
              (relu2): ReLU(inplace=True)
              (conv2): Conv2d(128, 32, kernel_size=(3, 3), stride=(1, 1), padding=(1, 1), bias=False)
            )
          )
          (transition2): _Transition(
            (norm): BatchNorm2d(512, eps=1e-05, momentum=0.1, affine=True, track_running_stats=True)
            (relu): ReLU(inplace=True)
            (conv): Conv2d(512, 256, kernel_size=(1, 1), stride=(1, 1), bias=False)
            (pool): AvgPool2d(kernel_size=2, stride=2, padding=0)
          )
          (denseblock3): _DenseBlock(
            (denselayer1): _DenseLayer(
              (norm1): BatchNorm2d(256, eps=1e-05, momentum=0.1, affine=True, track_running_stats=True)
              (relu1): ReLU(inplace=True)
              (conv1): Conv2d(256, 128, kernel_size=(1, 1), stride=(1, 1), bias=False)
              (norm2): BatchNorm2d(128, eps=1e-05, momentum=0.1, affine=True, track_running_stats=True)
              (relu2): ReLU(inplace=True)
              (conv2): Conv2d(128, 32, kernel_size=(3, 3), stride=(1, 1), padding=(1, 1), bias=False)
            )
            (denselayer2): _DenseLayer(
              (norm1): BatchNorm2d(288, eps=1e-05, momentum=0.1, affine=True, track_running_stats=True)
              (relu1): ReLU(inplace=True)
              (conv1): Conv2d(288, 128, kernel_size=(1, 1), stride=(1, 1), bias=False)
              (norm2): BatchNorm2d(128, eps=1e-05, momentum=0.1, affine=True, track_running_stats=True)
              (relu2): ReLU(inplace=True)
              (conv2): Conv2d(128, 32, kernel_size=(3, 3), stride=(1, 1), padding=(1, 1), bias=False)
            )
            (denselayer3): _DenseLayer(
              (norm1): BatchNorm2d(320, eps=1e-05, momentum=0.1, affine=True, track_running_stats=True)
              (relu1): ReLU(inplace=True)
              (conv1): Conv2d(320, 128, kernel_size=(1, 1), stride=(1, 1), bias=False)
              (norm2): BatchNorm2d(128, eps=1e-05, momentum=0.1, affine=True, track_running_stats=True)
              (relu2): ReLU(inplace=True)
              (conv2): Conv2d(128, 32, kernel_size=(3, 3), stride=(1, 1), padding=(1, 1), bias=False)
            )
            (denselayer4): _DenseLayer(
              (norm1): BatchNorm2d(352, eps=1e-05, momentum=0.1, affine=True, track_running_stats=True)
              (relu1): ReLU(inplace=True)
              (conv1): Conv2d(352, 128, kernel_size=(1, 1), stride=(1, 1), bias=False)
              (norm2): BatchNorm2d(128, eps=1e-05, momentum=0.1, affine=True, track_running_stats=True)
              (relu2): ReLU(inplace=True)
              (conv2): Conv2d(128, 32, kernel_size=(3, 3), stride=(1, 1), padding=(1, 1), bias=False)
            )
            (denselayer5): _DenseLayer(
              (norm1): BatchNorm2d(384, eps=1e-05, momentum=0.1, affine=True, track_running_stats=True)
              (relu1): ReLU(inplace=True)
              (conv1): Conv2d(384, 128, kernel_size=(1, 1), stride=(1, 1), bias=False)
              (norm2): BatchNorm2d(128, eps=1e-05, momentum=0.1, affine=True, track_running_stats=True)
              (relu2): ReLU(inplace=True)
              (conv2): Conv2d(128, 32, kernel_size=(3, 3), stride=(1, 1), padding=(1, 1), bias=False)
            )
            (denselayer6): _DenseLayer(
              (norm1): BatchNorm2d(416, eps=1e-05, momentum=0.1, affine=True, track_running_stats=True)
              (relu1): ReLU(inplace=True)
              (conv1): Conv2d(416, 128, kernel_size=(1, 1), stride=(1, 1), bias=False)
              (norm2): BatchNorm2d(128, eps=1e-05, momentum=0.1, affine=True, track_running_stats=True)
              (relu2): ReLU(inplace=True)
              (conv2): Conv2d(128, 32, kernel_size=(3, 3), stride=(1, 1), padding=(1, 1), bias=False)
            )
            (denselayer7): _DenseLayer(
              (norm1): BatchNorm2d(448, eps=1e-05, momentum=0.1, affine=True, track_running_stats=True)
              (relu1): ReLU(inplace=True)
              (conv1): Conv2d(448, 128, kernel_size=(1, 1), stride=(1, 1), bias=False)
              (norm2): BatchNorm2d(128, eps=1e-05, momentum=0.1, affine=True, track_running_stats=True)
              (relu2): ReLU(inplace=True)
              (conv2): Conv2d(128, 32, kernel_size=(3, 3), stride=(1, 1), padding=(1, 1), bias=False)
            )
            (denselayer8): _DenseLayer(
              (norm1): BatchNorm2d(480, eps=1e-05, momentum=0.1, affine=True, track_running_stats=True)
              (relu1): ReLU(inplace=True)
              (conv1): Conv2d(480, 128, kernel_size=(1, 1), stride=(1, 1), bias=False)
              (norm2): BatchNorm2d(128, eps=1e-05, momentum=0.1, affine=True, track_running_stats=True)
              (relu2): ReLU(inplace=True)
              (conv2): Conv2d(128, 32, kernel_size=(3, 3), stride=(1, 1), padding=(1, 1), bias=False)
            )
            (denselayer9): _DenseLayer(
              (norm1): BatchNorm2d(512, eps=1e-05, momentum=0.1, affine=True, track_running_stats=True)
              (relu1): ReLU(inplace=True)
              (conv1): Conv2d(512, 128, kernel_size=(1, 1), stride=(1, 1), bias=False)
              (norm2): BatchNorm2d(128, eps=1e-05, momentum=0.1, affine=True, track_running_stats=True)
              (relu2): ReLU(inplace=True)
              (conv2): Conv2d(128, 32, kernel_size=(3, 3), stride=(1, 1), padding=(1, 1), bias=False)
            )
            (denselayer10): _DenseLayer(
              (norm1): BatchNorm2d(544, eps=1e-05, momentum=0.1, affine=True, track_running_stats=True)
              (relu1): ReLU(inplace=True)
              (conv1): Conv2d(544, 128, kernel_size=(1, 1), stride=(1, 1), bias=False)
              (norm2): BatchNorm2d(128, eps=1e-05, momentum=0.1, affine=True, track_running_stats=True)
              (relu2): ReLU(inplace=True)
              (conv2): Conv2d(128, 32, kernel_size=(3, 3), stride=(1, 1), padding=(1, 1), bias=False)
            )
            (denselayer11): _DenseLayer(
              (norm1): BatchNorm2d(576, eps=1e-05, momentum=0.1, affine=True, track_running_stats=True)
              (relu1): ReLU(inplace=True)
              (conv1): Conv2d(576, 128, kernel_size=(1, 1), stride=(1, 1), bias=False)
              (norm2): BatchNorm2d(128, eps=1e-05, momentum=0.1, affine=True, track_running_stats=True)
              (relu2): ReLU(inplace=True)
              (conv2): Conv2d(128, 32, kernel_size=(3, 3), stride=(1, 1), padding=(1, 1), bias=False)
            )
            (denselayer12): _DenseLayer(
              (norm1): BatchNorm2d(608, eps=1e-05, momentum=0.1, affine=True, track_running_stats=True)
              (relu1): ReLU(inplace=True)
              (conv1): Conv2d(608, 128, kernel_size=(1, 1), stride=(1, 1), bias=False)
              (norm2): BatchNorm2d(128, eps=1e-05, momentum=0.1, affine=True, track_running_stats=True)
              (relu2): ReLU(inplace=True)
              (conv2): Conv2d(128, 32, kernel_size=(3, 3), stride=(1, 1), padding=(1, 1), bias=False)
            )
            (denselayer13): _DenseLayer(
              (norm1): BatchNorm2d(640, eps=1e-05, momentum=0.1, affine=True, track_running_stats=True)
              (relu1): ReLU(inplace=True)
              (conv1): Conv2d(640, 128, kernel_size=(1, 1), stride=(1, 1), bias=False)
              (norm2): BatchNorm2d(128, eps=1e-05, momentum=0.1, affine=True, track_running_stats=True)
              (relu2): ReLU(inplace=True)
              (conv2): Conv2d(128, 32, kernel_size=(3, 3), stride=(1, 1), padding=(1, 1), bias=False)
            )
            (denselayer14): _DenseLayer(
              (norm1): BatchNorm2d(672, eps=1e-05, momentum=0.1, affine=True, track_running_stats=True)
              (relu1): ReLU(inplace=True)
              (conv1): Conv2d(672, 128, kernel_size=(1, 1), stride=(1, 1), bias=False)
              (norm2): BatchNorm2d(128, eps=1e-05, momentum=0.1, affine=True, track_running_stats=True)
              (relu2): ReLU(inplace=True)
              (conv2): Conv2d(128, 32, kernel_size=(3, 3), stride=(1, 1), padding=(1, 1), bias=False)
            )
            (denselayer15): _DenseLayer(
              (norm1): BatchNorm2d(704, eps=1e-05, momentum=0.1, affine=True, track_running_stats=True)
              (relu1): ReLU(inplace=True)
              (conv1): Conv2d(704, 128, kernel_size=(1, 1), stride=(1, 1), bias=False)
              (norm2): BatchNorm2d(128, eps=1e-05, momentum=0.1, affine=True, track_running_stats=True)
              (relu2): ReLU(inplace=True)
              (conv2): Conv2d(128, 32, kernel_size=(3, 3), stride=(1, 1), padding=(1, 1), bias=False)
            )
            (denselayer16): _DenseLayer(
              (norm1): BatchNorm2d(736, eps=1e-05, momentum=0.1, affine=True, track_running_stats=True)
              (relu1): ReLU(inplace=True)
              (conv1): Conv2d(736, 128, kernel_size=(1, 1), stride=(1, 1), bias=False)
              (norm2): BatchNorm2d(128, eps=1e-05, momentum=0.1, affine=True, track_running_stats=True)
              (relu2): ReLU(inplace=True)
              (conv2): Conv2d(128, 32, kernel_size=(3, 3), stride=(1, 1), padding=(1, 1), bias=False)
            )
            (denselayer17): _DenseLayer(
              (norm1): BatchNorm2d(768, eps=1e-05, momentum=0.1, affine=True, track_running_stats=True)
              (relu1): ReLU(inplace=True)
              (conv1): Conv2d(768, 128, kernel_size=(1, 1), stride=(1, 1), bias=False)
              (norm2): BatchNorm2d(128, eps=1e-05, momentum=0.1, affine=True, track_running_stats=True)
              (relu2): ReLU(inplace=True)
              (conv2): Conv2d(128, 32, kernel_size=(3, 3), stride=(1, 1), padding=(1, 1), bias=False)
            )
            (denselayer18): _DenseLayer(
              (norm1): BatchNorm2d(800, eps=1e-05, momentum=0.1, affine=True, track_running_stats=True)
              (relu1): ReLU(inplace=True)
              (conv1): Conv2d(800, 128, kernel_size=(1, 1), stride=(1, 1), bias=False)
              (norm2): BatchNorm2d(128, eps=1e-05, momentum=0.1, affine=True, track_running_stats=True)
              (relu2): ReLU(inplace=True)
              (conv2): Conv2d(128, 32, kernel_size=(3, 3), stride=(1, 1), padding=(1, 1), bias=False)
            )
            (denselayer19): _DenseLayer(
              (norm1): BatchNorm2d(832, eps=1e-05, momentum=0.1, affine=True, track_running_stats=True)
              (relu1): ReLU(inplace=True)
              (conv1): Conv2d(832, 128, kernel_size=(1, 1), stride=(1, 1), bias=False)
              (norm2): BatchNorm2d(128, eps=1e-05, momentum=0.1, affine=True, track_running_stats=True)
              (relu2): ReLU(inplace=True)
              (conv2): Conv2d(128, 32, kernel_size=(3, 3), stride=(1, 1), padding=(1, 1), bias=False)
            )
            (denselayer20): _DenseLayer(
              (norm1): BatchNorm2d(864, eps=1e-05, momentum=0.1, affine=True, track_running_stats=True)
              (relu1): ReLU(inplace=True)
              (conv1): Conv2d(864, 128, kernel_size=(1, 1), stride=(1, 1), bias=False)
              (norm2): BatchNorm2d(128, eps=1e-05, momentum=0.1, affine=True, track_running_stats=True)
              (relu2): ReLU(inplace=True)
              (conv2): Conv2d(128, 32, kernel_size=(3, 3), stride=(1, 1), padding=(1, 1), bias=False)
            )
            (denselayer21): _DenseLayer(
              (norm1): BatchNorm2d(896, eps=1e-05, momentum=0.1, affine=True, track_running_stats=True)
              (relu1): ReLU(inplace=True)
              (conv1): Conv2d(896, 128, kernel_size=(1, 1), stride=(1, 1), bias=False)
              (norm2): BatchNorm2d(128, eps=1e-05, momentum=0.1, affine=True, track_running_stats=True)
              (relu2): ReLU(inplace=True)
              (conv2): Conv2d(128, 32, kernel_size=(3, 3), stride=(1, 1), padding=(1, 1), bias=False)
            )
            (denselayer22): _DenseLayer(
              (norm1): BatchNorm2d(928, eps=1e-05, momentum=0.1, affine=True, track_running_stats=True)
              (relu1): ReLU(inplace=True)
              (conv1): Conv2d(928, 128, kernel_size=(1, 1), stride=(1, 1), bias=False)
              (norm2): BatchNorm2d(128, eps=1e-05, momentum=0.1, affine=True, track_running_stats=True)
              (relu2): ReLU(inplace=True)
              (conv2): Conv2d(128, 32, kernel_size=(3, 3), stride=(1, 1), padding=(1, 1), bias=False)
            )
            (denselayer23): _DenseLayer(
              (norm1): BatchNorm2d(960, eps=1e-05, momentum=0.1, affine=True, track_running_stats=True)
              (relu1): ReLU(inplace=True)
              (conv1): Conv2d(960, 128, kernel_size=(1, 1), stride=(1, 1), bias=False)
              (norm2): BatchNorm2d(128, eps=1e-05, momentum=0.1, affine=True, track_running_stats=True)
              (relu2): ReLU(inplace=True)
              (conv2): Conv2d(128, 32, kernel_size=(3, 3), stride=(1, 1), padding=(1, 1), bias=False)
            )
            (denselayer24): _DenseLayer(
              (norm1): BatchNorm2d(992, eps=1e-05, momentum=0.1, affine=True, track_running_stats=True)
              (relu1): ReLU(inplace=True)
              (conv1): Conv2d(992, 128, kernel_size=(1, 1), stride=(1, 1), bias=False)
              (norm2): BatchNorm2d(128, eps=1e-05, momentum=0.1, affine=True, track_running_stats=True)
              (relu2): ReLU(inplace=True)
              (conv2): Conv2d(128, 32, kernel_size=(3, 3), stride=(1, 1), padding=(1, 1), bias=False)
            )
          )
          (transition3): _Transition(
            (norm): BatchNorm2d(1024, eps=1e-05, momentum=0.1, affine=True, track_running_stats=True)
            (relu): ReLU(inplace=True)
            (conv): Conv2d(1024, 512, kernel_size=(1, 1), stride=(1, 1), bias=False)
            (pool): AvgPool2d(kernel_size=2, stride=2, padding=0)
          )
          (denseblock4): _DenseBlock(
            (denselayer1): _DenseLayer(
              (norm1): BatchNorm2d(512, eps=1e-05, momentum=0.1, affine=True, track_running_stats=True)
              (relu1): ReLU(inplace=True)
              (conv1): Conv2d(512, 128, kernel_size=(1, 1), stride=(1, 1), bias=False)
              (norm2): BatchNorm2d(128, eps=1e-05, momentum=0.1, affine=True, track_running_stats=True)
              (relu2): ReLU(inplace=True)
              (conv2): Conv2d(128, 32, kernel_size=(3, 3), stride=(1, 1), padding=(1, 1), bias=False)
            )
            (denselayer2): _DenseLayer(
              (norm1): BatchNorm2d(544, eps=1e-05, momentum=0.1, affine=True, track_running_stats=True)
              (relu1): ReLU(inplace=True)
              (conv1): Conv2d(544, 128, kernel_size=(1, 1), stride=(1, 1), bias=False)
              (norm2): BatchNorm2d(128, eps=1e-05, momentum=0.1, affine=True, track_running_stats=True)
              (relu2): ReLU(inplace=True)
              (conv2): Conv2d(128, 32, kernel_size=(3, 3), stride=(1, 1), padding=(1, 1), bias=False)
            )
            (denselayer3): _DenseLayer(
              (norm1): BatchNorm2d(576, eps=1e-05, momentum=0.1, affine=True, track_running_stats=True)
              (relu1): ReLU(inplace=True)
              (conv1): Conv2d(576, 128, kernel_size=(1, 1), stride=(1, 1), bias=False)
              (norm2): BatchNorm2d(128, eps=1e-05, momentum=0.1, affine=True, track_running_stats=True)
              (relu2): ReLU(inplace=True)
              (conv2): Conv2d(128, 32, kernel_size=(3, 3), stride=(1, 1), padding=(1, 1), bias=False)
            )
            (denselayer4): _DenseLayer(
              (norm1): BatchNorm2d(608, eps=1e-05, momentum=0.1, affine=True, track_running_stats=True)
              (relu1): ReLU(inplace=True)
              (conv1): Conv2d(608, 128, kernel_size=(1, 1), stride=(1, 1), bias=False)
              (norm2): BatchNorm2d(128, eps=1e-05, momentum=0.1, affine=True, track_running_stats=True)
              (relu2): ReLU(inplace=True)
              (conv2): Conv2d(128, 32, kernel_size=(3, 3), stride=(1, 1), padding=(1, 1), bias=False)
            )
            (denselayer5): _DenseLayer(
              (norm1): BatchNorm2d(640, eps=1e-05, momentum=0.1, affine=True, track_running_stats=True)
              (relu1): ReLU(inplace=True)
              (conv1): Conv2d(640, 128, kernel_size=(1, 1), stride=(1, 1), bias=False)
              (norm2): BatchNorm2d(128, eps=1e-05, momentum=0.1, affine=True, track_running_stats=True)
              (relu2): ReLU(inplace=True)
              (conv2): Conv2d(128, 32, kernel_size=(3, 3), stride=(1, 1), padding=(1, 1), bias=False)
            )
            (denselayer6): _DenseLayer(
              (norm1): BatchNorm2d(672, eps=1e-05, momentum=0.1, affine=True, track_running_stats=True)
              (relu1): ReLU(inplace=True)
              (conv1): Conv2d(672, 128, kernel_size=(1, 1), stride=(1, 1), bias=False)
              (norm2): BatchNorm2d(128, eps=1e-05, momentum=0.1, affine=True, track_running_stats=True)
              (relu2): ReLU(inplace=True)
              (conv2): Conv2d(128, 32, kernel_size=(3, 3), stride=(1, 1), padding=(1, 1), bias=False)
            )
            (denselayer7): _DenseLayer(
              (norm1): BatchNorm2d(704, eps=1e-05, momentum=0.1, affine=True, track_running_stats=True)
              (relu1): ReLU(inplace=True)
              (conv1): Conv2d(704, 128, kernel_size=(1, 1), stride=(1, 1), bias=False)
              (norm2): BatchNorm2d(128, eps=1e-05, momentum=0.1, affine=True, track_running_stats=True)
              (relu2): ReLU(inplace=True)
              (conv2): Conv2d(128, 32, kernel_size=(3, 3), stride=(1, 1), padding=(1, 1), bias=False)
            )
            (denselayer8): _DenseLayer(
              (norm1): BatchNorm2d(736, eps=1e-05, momentum=0.1, affine=True, track_running_stats=True)
              (relu1): ReLU(inplace=True)
              (conv1): Conv2d(736, 128, kernel_size=(1, 1), stride=(1, 1), bias=False)
              (norm2): BatchNorm2d(128, eps=1e-05, momentum=0.1, affine=True, track_running_stats=True)
              (relu2): ReLU(inplace=True)
              (conv2): Conv2d(128, 32, kernel_size=(3, 3), stride=(1, 1), padding=(1, 1), bias=False)
            )
            (denselayer9): _DenseLayer(
              (norm1): BatchNorm2d(768, eps=1e-05, momentum=0.1, affine=True, track_running_stats=True)
              (relu1): ReLU(inplace=True)
              (conv1): Conv2d(768, 128, kernel_size=(1, 1), stride=(1, 1), bias=False)
              (norm2): BatchNorm2d(128, eps=1e-05, momentum=0.1, affine=True, track_running_stats=True)
              (relu2): ReLU(inplace=True)
              (conv2): Conv2d(128, 32, kernel_size=(3, 3), stride=(1, 1), padding=(1, 1), bias=False)
            )
            (denselayer10): _DenseLayer(
              (norm1): BatchNorm2d(800, eps=1e-05, momentum=0.1, affine=True, track_running_stats=True)
              (relu1): ReLU(inplace=True)
              (conv1): Conv2d(800, 128, kernel_size=(1, 1), stride=(1, 1), bias=False)
              (norm2): BatchNorm2d(128, eps=1e-05, momentum=0.1, affine=True, track_running_stats=True)
              (relu2): ReLU(inplace=True)
              (conv2): Conv2d(128, 32, kernel_size=(3, 3), stride=(1, 1), padding=(1, 1), bias=False)
            )
            (denselayer11): _DenseLayer(
              (norm1): BatchNorm2d(832, eps=1e-05, momentum=0.1, affine=True, track_running_stats=True)
              (relu1): ReLU(inplace=True)
              (conv1): Conv2d(832, 128, kernel_size=(1, 1), stride=(1, 1), bias=False)
              (norm2): BatchNorm2d(128, eps=1e-05, momentum=0.1, affine=True, track_running_stats=True)
              (relu2): ReLU(inplace=True)
              (conv2): Conv2d(128, 32, kernel_size=(3, 3), stride=(1, 1), padding=(1, 1), bias=False)
            )
            (denselayer12): _DenseLayer(
              (norm1): BatchNorm2d(864, eps=1e-05, momentum=0.1, affine=True, track_running_stats=True)
              (relu1): ReLU(inplace=True)
              (conv1): Conv2d(864, 128, kernel_size=(1, 1), stride=(1, 1), bias=False)
              (norm2): BatchNorm2d(128, eps=1e-05, momentum=0.1, affine=True, track_running_stats=True)
              (relu2): ReLU(inplace=True)
              (conv2): Conv2d(128, 32, kernel_size=(3, 3), stride=(1, 1), padding=(1, 1), bias=False)
            )
            (denselayer13): _DenseLayer(
              (norm1): BatchNorm2d(896, eps=1e-05, momentum=0.1, affine=True, track_running_stats=True)
              (relu1): ReLU(inplace=True)
              (conv1): Conv2d(896, 128, kernel_size=(1, 1), stride=(1, 1), bias=False)
              (norm2): BatchNorm2d(128, eps=1e-05, momentum=0.1, affine=True, track_running_stats=True)
              (relu2): ReLU(inplace=True)
              (conv2): Conv2d(128, 32, kernel_size=(3, 3), stride=(1, 1), padding=(1, 1), bias=False)
            )
            (denselayer14): _DenseLayer(
              (norm1): BatchNorm2d(928, eps=1e-05, momentum=0.1, affine=True, track_running_stats=True)
              (relu1): ReLU(inplace=True)
              (conv1): Conv2d(928, 128, kernel_size=(1, 1), stride=(1, 1), bias=False)
              (norm2): BatchNorm2d(128, eps=1e-05, momentum=0.1, affine=True, track_running_stats=True)
              (relu2): ReLU(inplace=True)
              (conv2): Conv2d(128, 32, kernel_size=(3, 3), stride=(1, 1), padding=(1, 1), bias=False)
            )
            (denselayer15): _DenseLayer(
              (norm1): BatchNorm2d(960, eps=1e-05, momentum=0.1, affine=True, track_running_stats=True)
              (relu1): ReLU(inplace=True)
              (conv1): Conv2d(960, 128, kernel_size=(1, 1), stride=(1, 1), bias=False)
              (norm2): BatchNorm2d(128, eps=1e-05, momentum=0.1, affine=True, track_running_stats=True)
              (relu2): ReLU(inplace=True)
              (conv2): Conv2d(128, 32, kernel_size=(3, 3), stride=(1, 1), padding=(1, 1), bias=False)
            )
            (denselayer16): _DenseLayer(
              (norm1): BatchNorm2d(992, eps=1e-05, momentum=0.1, affine=True, track_running_stats=True)
              (relu1): ReLU(inplace=True)
              (conv1): Conv2d(992, 128, kernel_size=(1, 1), stride=(1, 1), bias=False)
              (norm2): BatchNorm2d(128, eps=1e-05, momentum=0.1, affine=True, track_running_stats=True)
              (relu2): ReLU(inplace=True)
              (conv2): Conv2d(128, 32, kernel_size=(3, 3), stride=(1, 1), padding=(1, 1), bias=False)
            )
          )
          (norm5): BatchNorm2d(1024, eps=1e-05, momentum=0.1, affine=True, track_running_stats=True)
        )
      )
    )
    (affinity_net): affinityNet(
      (mlp): Sequential(
        (0): Linear(in_features=2, out_features=1, bias=True)
        (1): ReLU()
      )
    )
    (affinity_appearance_net): affinity_appearanceNet(
      (mlp): Sequential(
        (0): Linear(in_features=2048, out_features=1, bias=True)
        (1): ReLU()
      )
    )
    (affinity_geom_net): affinity_geomNet(
      (mlp): Sequential(
        (0): Linear(in_features=8, out_features=1, bias=True)
        (1): ReLU()
      )
    )
    (affinity_final_net): affinity_finalNet(
      (mlp): Sequential(
        (0): Linear(in_features=2, out_features=1, bias=True)
        (1): ReLU()
      )
    )
    (positional_affinity_net): PositionalAffinityNet(
      (mlp): Sequential(
        (0): Linear(in_features=4, out_features=1, bias=True)
        (1): ReLU()
      )
    )
    (optim_net): optimNet(
      (conv1): GCNConv(2049, 512)
      (conv2): GCNConv(1408, 128)
      (edge_feature_transform): Linear(in_features=2, out_features=1, bias=True)
      (node_feature_mlp): Sequential(
        (0): Linear(in_features=512, out_features=128, bias=True)
        (1): ReLU()
      )
      (edge_feature_mlp): Sequential(
        (0): Linear(in_features=1, out_features=128, bias=True)
        (1): ReLU()
      )
    )
    (cos): CosineSimilarity()
  )
)
Epoch: [1] | Batch: [1] | Training_Loss: 2.800 |
Epoch: [1] | Batch: [2] | Training_Loss: 2.831 |
Epoch: [1] | Batch: [3] | Training_Loss: 4.919 |
Epoch: [1] | Batch: [4] | Training_Loss: 4.196 |
Epoch: [1] | Batch: [5] | Training_Loss: 5.724 |
Epoch: [1] | Batch: [6] | Training_Loss: 3.586 |
…
